…
<div class="language-python highlighter-rouge"><div class="highlight"><pre class="highlight"><code><span class="c1">#summary of cnn model architecture
</span><span class="n">modell</span><span class="p">.</span><span class="n">summary</span><span class="p">()</span>
</code></pre></div></div>

<div class="language-plaintext highlighter-rouge"><div class="highlight"><pre class="highlight"><code>Model: "sequential_2"
_________________________________________________________________
Layer (type)                 Output Shape              Param #   
=================================================================
sequential (Sequential)      (None, 224, 224, 3)       0         
_________________________________________________________________
sequential_1 (Sequential)    (None, 224, 224, 3)       0         
_________________________________________________________________
conv2d (Conv2D)              (None, 222, 222, 32)      896       
_________________________________________________________________
max_pooling2d (MaxPooling2D) (None, 111, 111, 32)      0         
_________________________________________________________________
conv2d_1 (Conv2D)            (None, 109, 109, 64)      18496     
_________________________________________________________________
max_pooling2d_1 (MaxPooling2 (None, 54, 54, 64)        0         
_________________________________________________________________
conv2d_2 (Conv2D)            (None, 52, 52, 64)        36928     
_________________________________________________________________
max_pooling2d_2 (MaxPooling2 (None, 26, 26, 64)        0         
_________________________________________________________________
conv2d_3 (Conv2D)            (None, 24, 24, 64)        36928     
_________________________________________________________________
max_pooling2d_3 (MaxPooling2 (None, 12, 12, 64)        0         
_________________________________________________________________
conv2d_4 (Conv2D)            (None, 10, 10, 64)        36928     
_________________________________________________________________
max_pooling2d_4 (MaxPooling2 (None, 5, 5, 64)          0         
_________________________________________________________________
conv2d_5 (Conv2D)            (None, 3, 3, 64)          36928     
_________________________________________________________________
max_pooling2d_5 (MaxPooling2 (None, 1, 1, 64)          0         
_________________________________________________________________
flatten (Flatten)            (None, 64)                0         
_________________________________________________________________
dense (Dense)                (None, 64)                4160      
_________________________________________________________________
dense_1 (Dense)              (None, 3)                 195       
=================================================================
Total params: 171,459
Trainable params: 171,459
Non-trainable params: 0
_________________________________________________________________
</code></pre></div></div>

<p><strong><code class="language-plaintext highlighter-rouge">Interpretation:</code></strong> Summary above shows us we‚Äôve been successfully train our params, it runs smoothly. So the probability of success to dealing with prediction is higher, as we don‚Äôt have ‚Äúnon-trainable params‚Äù. <br />
…
